…
d to `True`. This limits the functions that could be executed during unpickling. Arbitrary objects will no longer be allowed to be loaded via this mode unless they are explicitly allowlisted by the user via `torch.serialization.add_safe_globals`. We recommend you start setting `weights_only=True` for any use case where you don't have full control of the loaded file. Please open an issue on GitHub for any issues related to this experimental feature.
  ckpt = torch.load(args.pretrained, map_location=device)
[18:24:57.293519] Model = AsymmetricMASt3R(
  (patch_embed): ManyAR_PatchEmbed(
    (proj): Conv2d(3, 1024, kernel_size=(16, 16), stride=(16, 16))
    (norm): Identity()
  )
  (mask_generator): RandomMask()
  (rope): cuRoPE2D()
  (enc_blocks): ModuleList(
    (0-23): 24 x Block(
      (norm1): LayerNorm((1024,), eps=1e-06, elementwise_affine=True)
      (attn): Attention(
        (qkv): Linear(in_features=1024, out_features=3072, bias=True)
        (attn_drop): Dropout(p=0.0, inplace=False)
        (proj): Linear(in_features=1024, out_features=1024, bias=True)
        (proj_drop): Dropout(p=0.0, inplace=False)
        (rope): cuRoPE2D()
      )
      (drop_path): Identity()
      (norm2): LayerNorm((1024,), eps=1e-06, elementwise_affine=True)
      (mlp): Mlp(
        (fc1): Linear(in_features=1024, out_features=4096, bias=True)
        (act): GELU(approximate='none')
        (drop1): Dropout(p=0.0, inplace=False)
        (fc2): Linear(in_features=4096, out_features=1024, bias=True)
        (drop2): Dropout(p=0.0, inplace=False)
      )
    )
  )
  (enc_norm): LayerNorm((1024,), eps=1e-06, elementwise_affine=True)
  (decoder_embed): Linear(in_features=1024, out_features=768, bias=True)
  (dec_blocks): ModuleList(
    (0-11): 12 x DecoderBlock(
      (norm1): LayerNorm((768,), eps=1e-06, elementwise_affine=True)
      (attn): Attention(
        (qkv): Linear(in_features=768, out_features=2304, bias=True)
        (attn_drop): Dropout(p=0.0, inplace=False)
        (proj): Linear(in_features=768, out_features=768, bias=True)
        (proj_drop): Dropout(p=0.0, inplace=False)
        (rope): cuRoPE2D()
      )
      (cross_attn): CrossAttention(
        (projq): Linear(in_features=768, out_features=768, bias=True)
        (projk): Linear(in_features=768, out_features=768, bias=True)
        (projv): Linear(in_features=768, out_features=768, bias=True)
        (attn_drop): Dropout(p=0.0, inplace=False)
        (proj): Linear(in_features=768, out_features=768, bias=True)
        (proj_drop): Dropout(p=0.0, inplace=False)
        (rope): cuRoPE2D()
      )
      (drop_path): Identity()
      (norm2): LayerNorm((768,), eps=1e-06, elementwise_affine=True)
      (norm3): LayerNorm((768,), eps=1e-06, elementwise_affine=True)
      (mlp): Mlp(
        (fc1): Linear(in_features=768, out_features=3072, bias=True)
        (act): GELU(approximate='none')
        (drop1): Dropout(p=0.0, inplace=False)
        (fc2): Linear(in_features=3072, out_features=768, bias=True)
        (drop2): Dropout(p=0.0, inplace=False)
      )
      (norm_y): LayerNorm((768,), eps=1e-06, elementwise_affine=True)
    )
  )
  (dec_norm): LayerNorm((768,), eps=1e-06, elementwise_affine=True)
  (dec_blocks2): ModuleList(
    (0-11): 12 x DecoderBlock(
      (norm1): LayerNorm((768,), eps=1e-06, elementwise_affine=True)
      (attn): Attention(
        (qkv): Linear(in_features=768, out_features=2304, bias=True)
        (attn_drop): Dropout(p=0.0, inplace=False)
        (proj): Linear(in_features=768, out_features=768, bias=True)
        (proj_drop): Dropout(p=0.0, inplace=False)
        (rope): cuRoPE2D()
      )
      (cross_attn): CrossAttention(
        (projq): Linear(in_features=768, out_features=768, bias=True)
        (projk): Linear(in_features=768, out_features=768, bias=True)
        (projv): Linear(in_features=768, out_features=768, bias=True)
        (attn_drop): Dropout(p=0.0, inplace=False)
        (proj): Linear(in_features=768, out_features=768, bias=True)
        (proj_drop): Dropout(p=0.0, inplace=False)
        (rope): cuRoPE2D()
      )
      (drop_path): Identity()
      (norm2): LayerNorm((768,), eps=1e-06, elementwise_affine=True)
      (norm3): LayerNorm((768,), eps=1e-06, elementwise_affine=True)
      (mlp): Mlp(
        (fc1): Linear(in_features=768, out_features=3072, bias=True)
        (act): GELU(approximate='none')
        (drop1): Dropout(p=0.0, inplace=False)
        (fc2): Linear(in_features=3072, out_features=768, bias=True)
        (drop2): Dropout(p=0.0, inplace=False)
      )
      (norm_y): LayerNorm((768,), eps=1e-06, elementwise_affine=True)
    )
  )
  (downstream_head1): Cat_MLP_LocalFeatures_DPT_Pts3d(
    (dpt): DPTOutputAdapter_fix(
      (scratch): Module(
        (layer1_rn): Conv2d(96, 256, kernel_size=(3, 3), stride=(1, 1), padding=(1, 1), bias=False)
        (layer2_rn): Conv2d(192, 256, kernel_size=(3, 3), stride=(1, 1), padding=(1, 1), bias=False)
        (layer3_rn): Conv2d(384, 256, kernel_size=(3, 3), stride=(1, 1), padding=(1, 1), bias=False)
        (layer4_rn): Conv2d(768, 256, kernel_size=(3, 3), stride=(1, 1), padding=(1, 1), bias=False)
        (layer_rn): ModuleList(
          (0): Conv2d(96, 256, kernel_size=(3, 3), stride=(1, 1), padding=(1, 1), bias=False)
          (1): Conv2d(192, 256, kernel_size=(3, 3), stride=(1, 1), padding=(1, 1), bias=False)
          (2): Conv2d(384, 256, kernel_size=(3, 3), stride=(1, 1), padding=(1, 1), bias=False)
          (3): Conv2d(768, 256, kernel_size=(3, 3), stride=(1, 1), padding=(1, 1), bias=False)
        )
        (refinenet1): FeatureFusionBlock_custom(
          (out_conv): Conv2d(256, 256, kernel_size=(1, 1), stride=(1, 1))
          (resConfUnit1): ResidualConvUnit_custom(
            (conv1): Conv2d(256, 256, kernel_size=(3, 3), stride=(1, 1), padding=(1, 1))
            (conv2): Conv2d(256, 256, kernel_size=(3, 3), stride=(1, 1), padding=(1, 1))
            (activation): ReLU()
            (skip_add): FloatFunctional(
              (activation_post_process): Identity()
            )
          )
          (resConfUnit2): ResidualConvUnit_custom(
            (conv1): Conv2d(256, 256, kernel_size=(3, 3), stride=(1, 1), padding=(1, 1))
            (conv2): Conv2d(256, 256, kernel_size=(3, 3), stride=(1, 1), padding=(1, 1))
            (activation): ReLU()
            (skip_add): FloatFunctional(
              (activation_post_process): Identity()
            )
          )
          (skip_add): FloatFunctional(
            (activation_post_process): Identity()
          )
        )
        (refinenet2): FeatureFusionBlock_custom(
          (out_conv): Conv2d(256, 256, kernel_size=(1, 1), stride=(1, 1))
          (resConfUnit1): ResidualConvUnit_custom(
            (conv1): Conv2d(256, 256, kernel_size=(3, 3), stride=(1, 1), padding=(1, 1))
            (conv2): Conv2d(256, 256, kernel_size=(3, 3), stride=(1, 1), padding=(1, 1))
            (activation): ReLU()
            (skip_add): FloatFunctional(
              (activation_post_process): Identity()
            )
          )
          (resConfUnit2): ResidualConvUnit_custom(
            (conv1): Conv2d(256, 256, kernel_size=(3, 3), stride=(1, 1), padding=(1, 1))
            (conv2): Conv2d(256, 256, kernel_size=(3, 3), stride=(1, 1), padding=(1, 1))
            (activation): ReLU()
            (skip_add): FloatFunctional(
              (activation_post_process): Identity()
            )
          )
          (skip_add): FloatFunctional(
            (activation_post_process): Identity()
          )
        )
        (refinenet3): FeatureFusionBlock_custom(
          (out_conv): Conv2d(256, 256, kernel_size=(1, 1), stride=(1, 1))
          (resConfUnit1): ResidualConvUnit_custom(
            (conv1): Conv2d(256, 256, kernel_size=(3, 3), stride=(1, 1), padding=(1, 1))
            (conv2): Conv2d(256, 256, kernel_size=(3, 3), stride=(1, 1), padding=(1, 1))
            (activation): ReLU()
            (skip_add): FloatFunctional(
              (activation_post_process): Identity()
            )
          )
          (resConfUnit2): ResidualConvUnit_custom(
            (conv1): Conv2d(256, 256, kernel_size=(3, 3), stride=(1, 1), padding=(1, 1))
            (conv2): Conv2d(256, 256, kernel_size=(3, 3), stride=(1, 1), padding=(1, 1))
            (activation): ReLU()
            (skip_add): FloatFunctional(
              (activation_post_process): Identity()
            )
          )
          (skip_add): FloatFunctional(
            (activation_post_process): Identity()
          )
        )
        (refinenet4): FeatureFusionBlock_custom(
          (out_conv): Conv2d(256, 256, kernel_size=(1, 1), stride=(1, 1))
          (resConfUnit1): ResidualConvUnit_custom(
            (conv1): Conv2d(256, 256, kernel_size=(3, 3), stride=(1, 1), padding=(1, 1))
            (conv2): Conv2d(256, 256, kernel_size=(3, 3), stride=(1, 1), padding=(1, 1))
            (activation): ReLU()
            (skip_add): FloatFunctional(
              (activation_post_process): Identity()
            )
          )
          (resConfUnit2): ResidualConvUnit_custom(
            (conv1): Conv2d(256, 256, kernel_size=(3, 3), stride=(1, 1), padding=(1, 1))
            (conv2): Conv2d(256, 256, kernel_size=(3, 3), stride=(1, 1), padding=(1, 1))
            (activation): ReLU()
            (skip_add): FloatFunctional(
              (activation_post_process): Identity()
            )
          )
          (skip_add): FloatFunctional(
            (activation_post_process): Identity()
          )
        )
      )
      (head): Sequential(
        (0): Conv2d(256, 128, kernel_size=(3, 3), stride=(1, 1), padding=(1, 1))
        (1): Interpolate()
        (2): Conv2d(128, 128, kernel_size=(3, 3), stride=(1, 1), padding=(1, 1))
        (3): ReLU(inplace=True)
        (4): Conv2d(128, 4, kernel_size=(1, 1), stride=(1, 1))
      )
      (act_postprocess): ModuleList(
        (0): Sequential(
          (0): Conv2d(1024, 96, kernel_size=(1, 1), stride=(1, 1))
          (1): ConvTranspose2d(96, 96, kernel_size=(4, 4), stride=(4, 4))
        )
        (1): Sequential(
          (0): Conv2d(768, 192, kernel_size=(1, 1), stride=(1, 1))
          (1): ConvTranspose2d(192, 192, kernel_size=(2, 2), stride=(2, 2))
        )
        (2): Sequential(
          (0): Conv2d(768, 384, kernel_size=(1, 1), stride=(1, 1))
        )
        (3): Sequential(
          (0): Conv2d(768, 768, kernel_size=(1, 1), stride=(1, 1))
          (1): Conv2d(768, 768, kernel_size=(3, 3), stride=(2, 2), padding=(1, 1))
        )
      )
    )
    (head_local_features): Mlp(
      (fc1): Linear(in_features=1792, out_features=7168, bias=True)
      (act): GELU(approximate='none')
      (drop1): Dropout(p=0.0, inplace=False)
      (fc2): Linear(in_features=7168, out_features=6400, bias=True)
      (drop2): Dropout(p=0.0, inplace=False)
    )
  )
  (downstream_head2): Cat_MLP_LocalFeatures_DPT_Pts3d(
    (dpt): DPTOutputAdapter_fix(
      (scratch): Module(
        (layer1_rn): Conv2d(96, 256, kernel_size=(3, 3), stride=(1, 1), padding=(1, 1), bias=False)
        (layer2_rn): Conv2d(192, 256, kernel_size=(3, 3), stride=(1, 1), padding=(1, 1), bias=False)
        (layer3_rn): Conv2d(384, 256, kernel_size=(3, 3), stride=(1, 1), padding=(1, 1), bias=False)
        (layer4_rn): Conv2d(768, 256, kernel_size=(3, 3), stride=(1, 1), padding=(1, 1), bias=False)
        (layer_rn): ModuleList(
          (0): Conv2d(96, 256, kernel_size=(3, 3), stride=(1, 1), padding=(1, 1), bias=False)
          (1): Conv2d(192, 256, kernel_size=(3, 3), stride=(1, 1), padding=(1, 1), bias=False)
          (2): Conv2d(384, 256, kernel_size=(3, 3), stride=(1, 1), padding=(1, 1), bias=False)
          (3): Conv2d(768, 256, kernel_size=(3, 3), stride=(1, 1), padding=(1, 1), bias=False)
        )
        (refinenet1): FeatureFusionBlock_custom(
          (out_conv): Conv2d(256, 256, kernel_size=(1, 1), stride=(1, 1))
          (resConfUnit1): ResidualConvUnit_custom(
            (conv1): Conv2d(256, 256, kernel_size=(3, 3), stride=(1, 1), padding=(1, 1))
            (conv2): Conv2d(256, 256, kernel_size=(3, 3), stride=(1, 1), padding=(1, 1))
            (activation): ReLU()
            (skip_add): FloatFunctional(
              (activation_post_process): Identity()
            )
          )
          (resConfUnit2): ResidualConvUnit_custom(
            (conv1): Conv2d(256, 256, kernel_size=(3, 3), stride=(1, 1), padding=(1, 1))
            (conv2): Conv2d(256, 256, kernel_size=(3, 3), stride=(1, 1), padding=(1, 1))
            (activation): ReLU()
            (skip_add): FloatFunctional(
              (activation_post_process): Identity()
            )
          )
          (skip_add): FloatFunctional(
            (activation_post_process): Identity()
          )
        )
        (refinenet2): FeatureFusionBlock_custom(
          (out_conv): Conv2d(256, 256, kernel_size=(1, 1), stride=(1, 1))
          (resConfUnit1): ResidualConvUnit_custom(
            (conv1): Conv2d(256, 256, kernel_size=(3, 3), stride=(1, 1), padding=(1, 1))
            (conv2): Conv2d(256, 256, kernel_size=(3, 3), stride=(1, 1), padding=(1, 1))
            (activation): ReLU()
            (skip_add): FloatFunctional(
              (activation_post_process): Identity()
            )
          )
          (resConfUnit2): ResidualConvUnit_custom(
            (conv1): Conv2d(256, 256, kernel_size=(3, 3), stride=(1, 1), padding=(1, 1))
            (conv2): Conv2d(256, 256, kernel_size=(3, 3), stride=(1, 1), padding=(1, 1))
            (activation): ReLU()
            (skip_add): FloatFunctional(
              (activation_post_process): Identity()
            )
          )
          (skip_add): FloatFunctional(
            (activation_post_process): Identity()
          )
        )
        (refinenet3): FeatureFusionBlock_custom(
          (out_conv): Conv2d(256, 256, kernel_size=(1, 1), stride=(1, 1))
          (resConfUnit1): ResidualConvUnit_custom(
            (conv1): Conv2d(256, 256, kernel_size=(3, 3), stride=(1, 1), padding=(1, 1))
            (conv2): Conv2d(256, 256, kernel_size=(3, 3), stride=(1, 1), padding=(1, 1))
            (activation): ReLU()
            (skip_add): FloatFunctional(
              (activation_post_process): Identity()
            )
          )
          (resConfUnit2): ResidualConvUnit_custom(
            (conv1): Conv2d(256, 256, kernel_size=(3, 3), stride=(1, 1), padding=(1, 1))
            (conv2): Conv2d(256, 256, kernel_size=(3, 3), stride=(1, 1), padding=(1, 1))
            (activation): ReLU()
            (skip_add): FloatFunctional(
              (activation_post_process): Identity()
            )
          )
          (skip_add): FloatFunctional(
            (activation_post_process): Identity()
          )
        )
        (refinenet4): FeatureFusionBlock_custom(
          (out_conv): Conv2d(256, 256, kernel_size=(1, 1), stride=(1, 1))
          (resConfUnit1): ResidualConvUnit_custom(
            (conv1): Conv2d(256, 256, kernel_size=(3, 3), stride=(1, 1), padding=(1, 1))
            (conv2): Conv2d(256, 256, kernel_size=(3, 3), stride=(1, 1), padding=(1, 1))
            (activation): ReLU()
            (skip_add): FloatFunctional(
              (activation_post_process): Identity()
            )
          )
          (resConfUnit2): ResidualConvUnit_custom(
            (conv1): Conv2d(256, 256, kernel_size=(3, 3), stride=(1, 1), padding=(1, 1))
            (conv2): Conv2d(256, 256, kernel_size=(3, 3), stride=(1, 1), padding=(1, 1))
            (activation): ReLU()
            (skip_add): FloatFunctional(
              (activation_post_process): Identity()
            )
          )
          (skip_add): FloatFunctional(
            (activation_post_process): Identity()
          )
        )
      )
      (head): Sequential(
        (0): Conv2d(256, 128, kernel_size=(3, 3), stride=(1, 1), padding=(1, 1))
        (1): Interpolate()
        (2): Conv2d(128, 128, kernel_size=(3, 3), stride=(1, 1), padding=(1, 1))
        (3): ReLU(inplace=True)
        (4): Conv2d(128, 4, kernel_size=(1, 1), stride=(1, 1))
      )
      (act_postprocess): ModuleList(
        (0): Sequential(
          (0): Conv2d(1024, 96, kernel_size=(1, 1), stride=(1, 1))
          (1): ConvTranspose2d(96, 96, kernel_size=(4, 4), stride=(4, 4))
        )
        (1): Sequential(
          (0): Conv2d(768, 192, kernel_size=(1, 1), stride=(1, 1))
          (1): ConvTranspose2d(192, 192, kernel_size=(2, 2), stride=(2, 2))
        )
        (2): Sequential(
          (0): Conv2d(768, 384, kernel_size=(1, 1), stride=(1, 1))
        )
        (3): Sequential(
          (0): Conv2d(768, 768, kernel_size=(1, 1), stride=(1, 1))
          (1): Conv2d(768, 768, kernel_size=(3, 3), stride=(2, 2), padding=(1, 1))
        )
      )
    )
    (head_local_features): Mlp(
      (fc1): Linear(in_features=1792, out_features=7168, bias=True)
      (act): GELU(approximate='none')
      (drop1): Dropout(p=0.0, inplace=False)
      (fc2): Linear(in_features=7168, out_features=6400, bias=True)
      (drop2): Dropout(p=0.0, inplace=False)
    )
  )
)
[18:24:57.293584] Loading pretrained:  checkpoints/DUSt3R_ViTLarge_BaseDecoder_512_dpt.pth
/cis/home/zshao14/Downloads/RoMa/mast3r/dust3r/dust3r/training.py:140: FutureWarning: You are using `torch.load` with `weights_only=False` (the current default value), which uses the default pickle module
…
